3D_CNN_pretrained_model/AD_pretrained_weights.pt (torch, 901553 bytes, 42 tensors)

embedding.0.0.weight f4 [8, 1, 3, 3, 3]
-0.07459153 0.010946802 0.05356512 0.1049255 0.03867834 0.07031745 0.0051302644 -0.045147676
-0.019513829 -0.024126548 0.028628092 0.09541716 0.022446025 0.07633052 -0.035302028 0.06358622
-0.024047343 0.024116823 -0.002662061 0.013929865 0.06557129 0.007860753 0.026787171 0.027667047
0.06315215 0.020084517 -0.035758805 -0.05653628 0.094757564 -0.009431331 0.06146972 -0.12029729
-0.13884196 0.06616348 -0.12133048 -0.1313451 0.023248471 -0.1113945 -0.11689808 0.0016327382
-0.00416068 -0.12302863 0.098568685 -0.12282408 0.021321777 0.10620683 0.051726613 0.11930971
0.13347651 0.07945006 -0.14534314 -0.01662836 0.04055257 -0.14141792 -0.030428167 -0.05105174
0.029293036 0.14720361 -0.02519689 0.006471814 0.102348596 -0.066641204 0.11398562 -0.0052221995
-0.076553576 -0.10965214 -0.07278671 -0.13374415 -0.043591637 0.057037663 0.15718631 -0.062036756
-0.066104494 0.015072846 -0.04125246 -0.12888344 -0.08678843 0.05860305 -0.018191336 0.04923495
-0.06428362 -0.082679585 -0.09869581 -0.12152473 -0.06421186 -0.050400842 0.11235685 -0.023621056
-0.086776696 0.08994318 -0.035082705 -0.051058237 -0.12699455 0.00014271513 0.034538575 0.09318255
0.10252891 -0.10121595 -0.00455531 -0.13856895 0.04687823 -0.08288162 -0.028159017 0.039407916
-0.045228742 0.14417776 0.12947918 -0.026658036 -0.079329774 -0.033202786 0.1109061 0.1047484
-0.11167295 -0.1182476 -0.16542399 -0.11653434 0.013202038 0.023539279 0.14584957 0.0877022
0.14843737 0.0075410674 -0.048886355 -0.100715555 -0.012004276 -0.04285791 -0.10799337 0.0087502785
-0.13958955 0.03771216 -0.09030561 0.0689851 0.07420946 -0.12011363 -0.09815545 -0.13333723
-0.07421271 0.08233437 -0.024566716 -0.048427086 0.094240986 -0.05598433 0.092428416 0.07989351
0.04388746 -0.1573212 0.12449203 -0.15578668 0.01451947 0.013434185 0.056542326 0.08753658
0.1442744 -0.09610283 0.08372145 0.09014189 -0.09986646 -0.09430494 -0.032169398 -0.073711984
-0.11012202 0.030056162 -0.10237532 0.121162884 0.15218468 0.094907306 -0.036782444 -0.04983115
-0.029903011 -0.09479833 0.025963465 0.04900427 -0.1622357 -0.16125727 -0.1473691 0.093088076
-0.14706047 0.09645397 -0.13561997 0.09826001 0.12691016 0.060148478 -0.1157785 -0.13700987
-0.0869215 0.094166026 -0.10115859 0.097429685 0.0017456315 -0.01872888 -0.049850035 -0.072452396
0.0318509 0.057664197 0.008328299 0.0736678 -0.06738874 0.03176278 0.05743116 -0.01543102
0.055595234 0.041606694 0.036465272 0.07849334 -0.10047756 0.078747466 -0.025839156 0.076473534
0.04696978 0.075746976 0.07942412 0.05580204 0.07077297 0.001357411 -0.051697493 0.008627049
00000000: 72c3 98bd 375a 333c 1967 5b3d 2ee3 d63d
00000010: 2e6d 1e3d 9802 903d c71b a83b c5ec 38bd
00000020: 77db 9fbc 0aa5 c5bc 7685 ea3c 126a c33d
00000030: bae0 b73c 2d53 9c3d dc98 10bd 7e39 823d
00000040: effe c4bc a590 c53c f975 2ebb 173a 643c
00000050: 3e4a 863d 63ca 003c c570 db3c 01a6 e23c
00000060: ea55 813d 4988 a43c d377 12bd 9692 67bd
00000070: 4110 c23d df85 1abc acc7 7b3d 6d5e f6bd
00000080: 962c 0ebe b880 873d 1d7c f8bd 547f 06be
00000090: 9473 be3c cd22 e4bd 4368 efbd 9a01 d63a
000000a0: 5056 88bb 6ff6 fbbd 61de c93d 318b fbbd
000000b0: 02ab ae3c f782 d93d 49df 533d a658 f43d
000000c0: 11ae 083e b7b6 a23d d5d4 14be 3338 88bc
000000d0: 741a 263d dccf 10be 7e44 f9bc a11b 51bd
000000e0: f3f7 ef3c 8bbc 163e b569 cebc 8311 d43b
000000f0: 249c d13d 2f7b 88bd 4b71 e93d fc1e abbb
00000100: 1fc8 9cbd 4d91 e0bd 3311 95bd 3af4 08be
00000110: 258d 32bd 53a0 693d 73f5 203e 411a 7ebd
00000120: cb61 87bd 19f4 763c 57f8 28bd 05fa 03be
00000130: 22be b1bd c009 703d ff05 95bc 96aa 493d
00000140: 21a7 83bd ea53 a9bd 0721 cabd f5e1 f8bd
00000150: 8281 83bd 1d71 4ebd 591b e63d f280 c1bc
00000160: fbb7 b1bd 2134 b83d e2b2 0fbd 7122 51bd
00000170: dc0a 02be cda5 1539 5278 0d3d 7ed6 be3d
00000180: adfa d13d 4f4a cfbd b644 95bb 05e5 0dbe
00000190: 6303 403d d7bd a9bd bdad e6bc 326a 213d
000001a0: c641 39bd 56a3 133e 3196 043e f461 dabc
000001b0: a677 a2bd a5ff 07bd bd22 e33d 5486 d63d
000001c0: cab4 e4bd cc2b f2bd e864 29be 8ea9 eebd
000001d0: 5c4d 583c 72d5 c03c 9759 153e 369d b33d
000001e0: f7ff 173e 0f1b f73b 0f3d 48bd f543 cebd
000001f0: 95ad 44bc c78b 2fbd a12b ddbd 545d 0f3c
00000200: 90f0 0ebe 1178 1a3d 26f2 b8bd 0f48 8d3d
00000210: 21fb 973d 23fe f5bd b905 c9bd 8e89 08be
00000220: d5fc 97bd ec9e a83d 2340 c9bc 7b5b 46bd
00000230: 6b01 c13d d34f 65bd 1c4b bd3d 359f a33d
00000240: 56c3 333d cf18 21be adf5 fe3d 8b86 1fbe
00000250: 12e3 6d3c 0e1b 5c3c ed98 673d 6146 b33d
00000260: abbc 133e 8fd1 c4bd 2776 ab3d 509c b83d
00000270: c986 ccbd f322 c1bd 0fc4 03bd 4ff6 96bd
00000280: a787 e1bd 5738 f63c 27aa d1bd 3f24 f83d
00000290: 4dd6 1b3e c35e c23d 30a9 16bd bf1b 4cbd
000002a0: 29f7 f4bc a025 c2bd 55b1 d43c b4b8 483d
000002b0: 1e21 26be a020 25be ede7 16be f6a4 be3d
000002c0: 0597 16be a989 c53d f6df 0abe 8b3c c93d
000002d0: bdf4 013e 405e 763d 471d edbd 514c 0cbe
000002e0: e603 b2bd 1eda c03d 3c2c cfbd 3789 c73d
000002f0: accd e43a 4f6d 99bc 8d2f 4cbd ec61 94bd
00000300: 1776 023d 4b31 6c3d 6b73 083c 25df 963d
00000310: 1c03 8abd b019 023d f03c 6b3d 64d2 7cbc
00000320: d4b7 633d c86b 2a3d 9c5c 153d 1ec1 a03d
00000330: 2ec7 cdbd 5a46 a13d a3ac d3bc 289e 9c3d
00000340: 6263 403d 3b21 9b3d 1da9 a23d ae90 643d
00000350: 6bf1 903d 28eb b13a c0c0 53bd 7758 0d3c

embedding.0.1.weight f4 [8]
0.5749573 0.61991173 0.6353204 0.61183643 0.5740679 0.7156181 0.5908934 0.65216875
00000000: 6730 133f 89b2 1e3f 5ca4 223f 50a1 1c3f
00000010: 1df6 123f bf32 373f ca44 173f 88f4 263f

embedding.0.1.bias f4 [8]
-0.07678722 -0.00979241 0.062163778 0.054475322 0.0072215945 0.019552749 0.031745117 0.01011074
00000000: 9e42 9dbd 5870 20bc 729f 7e3d 8421 5f3d
00000010: 20a3 ec3b 162d a03c 2b07 023d 84a7 253c

embedding.0.1.running_mean f4 [8]
-0.10588929 0.082663395 0.0751927 0.075177774 0.09691254 0.02884944 0.075413324 -0.109308735
00000000: 7cdc d8bd 6d4b a93d a1fe 993d cef6 993d
00000010: 157a c63d a955 ec3c 4d72 9a3d 42dd dfbd

embedding.0.1.running_var f4 [8]
0.23006 0.23742229 0.15209965 0.16683914 0.24090329 0.10267231 0.13915499 0.25408655
00000000: d994 6b3e d41e 733e 03c0 1b3e e1d7 2a3e
00000010: 5aaf 763e dc45 d23d a57e 0e3e a217 823e

embedding.1.0.weight f4 [8, 8, 3, 3, 3]
-0.008248521 -0.03773523 0.007884746 -0.009941523 0.02140258 0.0005314577 0.073075265 0.043403074
-0.02934831 -0.016604723 -0.04176781 0.06349219 -0.005223226 0.012548126 0.03166923 0.046705376
0.008548368 -0.0041404413 -0.029966112 0.05765255 -0.0121346135 -0.027499981 0.02254271 -0.006525982
-0.04128951 0.021780236 -0.009022612 0.055099256 -0.022033356 0.013751845 -0.016736364 0.045044105
0.011025668 -0.0128288325 0.0029792306 0.015037239 0.023544323 -0.012751617 0.023024384 -0.0004621811
-0.008606749 -0.025303325 0.004630546 0.039184432 -0.01737608 -0.01614234 -0.040789567 -0.04460534
-0.017002376 -0.07055019 -0.061883107 0.08102622 0.015513783 -0.037334252 -0.067631245 -0.012118541
-0.049500536 -0.0066754585 -0.026123961 -0.0027081165 -0.005327704 0.019343138 -0.051221628 -0.060862947
-0.058302335 -0.073526785 -0.00040738145 -0.05098788 -0.042536397 -0.02726789 0.0005022586 -0.022313863
-0.04083584 -0.060779225 -0.05488297 -0.00067169644 -0.020288004 -0.002120103 0.034254614 0.008124162
-0.01502972 -0.00012146577 0.0111326305 0.03480257 0.07710013 0.040103942 0.07140083 0.03595631
0.028753743 0.0017403631 0.029694596 0.01870219 0.011176083 0.056254696 0.05389119 0.03254079
0.02986291 -0.026085539 -0.046847284 -0.032403544 -0.12577237 -0.08718659 0.021552846 -0.05518896
-0.0036422093 -0.004445254 0.0207342 -0.056854073 0.059864532 0.046192873 0.014170174 0.0008801147
0.009402191 0.029681385 0.007462066 0.006653757 0.00088171917 -0.004073833 -0.004441926 0.031923175
0.0058104945 0.011376522 -0.025495965 0.0521318 -0.017629573 0.01216046 -0.014757322 -0.044344466
-0.014876241 5.8200578e-05 0.006524011 -0.006290932 0.006523444 -0.0044431845 0.020995682 0.015628677
-0.07283934 0.049240366 0.003962172 0.031177282 -0.008709223 0.096118234 0.06517167 -0.050348114
0.061571408 -0.030305777 -0.03373474 0.038902037 0.01828374 -0.04957824 0.020613378 0.03655924
-0.014703897 0.018070076 -0.056066703 -0.07496632 0.023191262 -0.032371365 -0.039246164 0.022272954
-0.06689726 0.02611209 0.021890866 -0.060130786 0.014039731 0.06385564 0.06802931 0.028059581
0.053130288 0.018332805 -0.011871534 0.001968112 -0.051197372 0.010500447 0.030109214 -0.007781301
-0.0030293476 0.009436229 0.04500788 -0.017922737 0.0014923788 -0.028602945 -0.009387673 0.009069912
0.013858585 -0.00015238195 0.051541306 0.056679644 0.043847956 -0.036638703 -0.08467566 0.010140644
-0.079868704 0.028572662 0.0066041546 0.00091684377 0.076594725 -0.011760524 -0.033155978 0.042555884
0.05497995 0.017100524 0.022631407 -0.014390834 0.0025254285 0.055712275 -0.015226766 -0.019120071
0.010701926 0.009756907 -0.058216937 -0.009917133 -0.006247936 0.011576864 -0.035311155 -0.013012975
-0.00072586926 -0.01840315 -0.0056600966 0.012431014 -0.017590895 -0.0059816106 -0.008322499 -0.016303653
-0.011919447 0.009580099 -0.0037608147 -0.010631306 -0.0031811176 -0.009499148 -0.007547182 -0.009200781
-0.013764293 -0.012308966 0.003637244 -0.0038553553 -0.022104334 -0.012058815 -0.016329387 -0.030684568
-0.034325317 -0.033860873 -0.026633076 0.030861644 0.0039650076 -0.0060427682 0.025826173 -0.0036199032
-0.0059849485 -0.012512715 -0.017402235 -0.008849714 0.02465742 0.01919531 -0.009069148 0.025880758
00000000: ce24 07bc 4290 1abd 062f 013c c5e1 22bc
00000010: 7754 af3c 8651 0b3a 7ca8 953d 6cc7 313d
00000020: de6b f0bc a106 88bc b914 2bbd 3108 823d
00000030: 9827 abbb a896 4d3c 98b7 013d 234e 3f3d
00000040: 740e 0c3c 8aac 87bb 7e7b f5bc 1525 6c3d
00000050: 42d0 46bc a447 e1bc 7dab b83c e8d7 d5bb
00000060: 301f 29bd 776c b23c 94d3 13bc c2af 613d
00000070: 4c7f b4bc 6b4f 613c b31a 89bc 2b80 383d
00000080: 01a5 343c 0630 52bc 323f 433b c05e 763c
00000090: 06e0 c03c 28ec 50bc a29d bc3c e650 f2b9
000000a0: 5203 0dbc eb48 cfbc d6bb 973b db7f 203d
000000b0: 4858 8ebc f13c 84bc f612 27bd 17b4 36bd
000000c0: 9148 8bbc 9e7c 90bd 2479 7dbd 13f1 a53d
000000d0: 862d 7e3c cdeb 18bd 4082 8abd d88c 46bc
000000e0: 13c1 4abd cebd dabb eb01 d6bc a87a 31bb
000000f0: 0594 aebb 8075 9e3c c5cd 51bd 6d4b 79bd
00000100: 6ece 6ebd 3695 96bd d095 d5b9 abd8 50bd
00000110: a53a 2ebd e960 dfbc 01aa 033a 90cb b6bc
00000120: 7b43 27bd a3f3 78bd f7cc 60bd c914 30ba
00000130: 0733 a6bc 6df1 0abb 914e 0c3d 351b 053c
00000140: 373f 76bc 70bb feb8 a365 363c 248d 0e3d
00000150: ace6 9d3d 0844 243d 993a 923d ec46 133d
00000160: f88c eb3c e51c e43a 1542 f33c 5635 993c
00000170: e41b 373c 536b 663d 02bd 5c3d 7e49 053d
00000180: 10a3 f43c 57b1 d5bc f0e2 3fbd 94b9 04bd
00000190: 79ca 00be e28e b2bd 988f b03c d20d 62bd
000001a0: 22b2 6ebb 7ea9 91bb c5da a93c d1df 68bd
000001b0: 8334 753d bd34 3d3d 042a 683c 7fb7 663a
000001c0: a60b 1a3c 6026 f33c 5984 f43b c207 da3b
000001d0: 2c23 673a ca7d 85bb 938d 91bb e0c1 023d
000001e0: f665 be3b 9764 3a3c eadc d0bc 2888 553d
000001f0: e56b 90bc ab3c 473c b2c8 71bc 8ba2 35bd
00000200: 7abb 73bc 651c 7438 5fc7 d53b 2a24 cebb
00000210: 9dc2 d53b 2298 91bb 23ff ab3c b607 803c
00000220: cb2c 95bd 44b0 493d 1cd5 813b 8067 ff3c
00000230: 21b1 0ebc a3d9 c43d b978 853d d339 4ebd
00000240: 4d32 7c3d d243 f8bc 702d 0abd be57 1f3d
00000250: c8c7 953c 8d12 4bbd 63dd a83c 24bf 153d
00000260: 9de8 70bc b207 943c 33a6 65bd f187 99bd
00000270: 9afb bd3c d697 04bd 96c0 20bd c575 b63c
00000280: 6e01 89bd 06e9 d53c 7954 b33c b34b 76bd
00000290: e606 663c bfc6 823d f352 8b3d 35dd e53c
000002a0: 259f 593d ae2e 963c d380 42bc 71fb 003b
000002b0: 56b4 51bd 110a 2c3c 99a7 f63c 49fa febb
000002c0: 0588 46bb 6a9a 1a3c 2f5a 383d b4d2 92bc
000002d0: ec9b c33a b950 eabc c1ce 19bc f899 143c
000002e0: 1e0f 633c b8c8 1fb9 fa1c 533d ea28 683d
000002f0: ea99 333d 7712 16bd 6f6a adbd f224 263c
00000300: 3492 a3bd 3711 ea3c aa67 d83b 5858 703a
00000310: b2dd 9c3d 36af 40bc 90ce 07bd 144f 2e3d
00000320: a832 613d 6616 8c3c 8065 b93c 88c7 6bbc
00000330: a981 253b 8e32 643d af79 79bc b2a1 9cbc
00000340: 2257 2f3c 6fdb 1f3c e274 6ebd 787b 22bc
00000350: 7cbb ccbb e3ac 3d3c 6ea2 10bd 6034 55bc
00000360: 4348 3eba 34c2 96bc 5578 b9bb 74ab 4b3c
00000370: c81a 90bc 6301 c4bb 175b 08bc 3d8f 85bc
00000380: c949 43bc d9f5 1c3c 0078 76bb ee2e 2ebc
00000390: 4c7a 50bb 50a2 1bbc 5a4e f7bb dfbe 16bc
000003a0: a183 61bc 8cab 49bc d45e 6e3b 21aa 7cbb
000003b0: 2614 b5bc 5692 45bc 35c5 85bc 345e fbbc
000003c0: b498 0cbd b3b1 0abd 9c2d dabc 8fd1 fc3c
000003d0: e5ec 813b 6a02 c6bb 6991 d33c e63b 6dbb
000003e0: 631d c4bb 2102 4dbc 228f 8ebc 64fe 10bc
000003f0: 5cfe c93c 7c3f 9d3c c496 14bc e203 d43c

embedding.1.1.weight f4 [8]
0.6851389 0.43336225 0.6726854 0.64949524 0.68357855 0.6735791 0.55274147 0.652212
00000000: 4365 2f3f a8e1 dd3e 1c35 2c3f 5245 263f
00000010: 01ff 2e3f ae6f 2c3f 7780 0d3f 5ef7 263f

embedding.1.1.bias f4 [8]
0.00276591 -0.0768461 -0.01458004 -0.03275666 0.042367555 0.020500477 -0.039843827 0.07025044
00000000: 4544 353b 7d61 9dbd 1fe1 6ebc d92b 06bd
00000010: 9a89 2d3d 9ef0 a73c 4833 23bd 76df 8f3d

embedding.1.1.running_mean f4 [8]
-0.11056633 -0.70400774 0.4496631 -1.2460759 0.22789413 1.0753187 0.11005962 0.38421372
00000000: 9a70 e2bd da39 34bf 3e3a e63e 6a7f 9fbf
00000010: 145d 693e 0ba4 893f f066 e13d a9b7 c43e

embedding.1.1.running_var f4 [8]
0.12696199 0.33897492 0.14694598 0.233696 0.09101011 0.5055814 0.06933037 0.09799726
00000000: 5302 023e 1f8e ad3e 0279 163e 014e 6f3e
00000010: 8263 ba3d c86d 013f 15fd 8d3d cab2 c83d

embedding.2.0.weight f4 [16, 8, 3, 3, 3]
-0.037069183 0.0386448 -0.05572821 -0.06643988 -0.006860676 -0.04286926 -0.011695397 -0.04356756
-0.036080807 -0.00092806906 -0.0036997993 0.070362516 0.022767179 -0.070198104 -0.0149122365 0.012258788
-0.021826431 -0.0029287068 0.030791184 -0.015389633 0.08416224 -0.04455157 0.044721156 0.07312936
-0.031928726 0.058888804 0.072103396 0.004781561 0.027830727 0.0060554193 0.031539757 -0.019698547
-0.017507832 -0.008086871 0.009579469 -0.035374776 -0.01786955 -0.0047425334 0.016035244 0.014084565
0.0027071366 0.002156993 -0.028905723 -0.029632308 0.005029733 -0.013643582 -0.00015719337 -0.011204805
0.003230291 -0.007599036 0.016346706 -0.027806664 -0.017995127 -0.0043688403 -0.0014378084 0.018495213
-0.028859736 -0.03623424 0.047284596 0.014680778 0.029704267 0.020406915 -0.06056795 -0.0022980776
0.043402985 0.036308553 0.0060015195 0.04487777 0.016320592 0.015809562 0.0055511766 -0.035092134
-0.009499505 0.039578117 0.007903377 0.04909527 -0.008895868 -0.053801566 0.008161091 0.0060425214
0.009084631 0.026483465 -0.021239828 0.020168617 0.032969285 -0.031262115 -0.013228461 0.0230454
0.020305784 0.0030159894 -0.036177166 -0.014694232 0.0026182805 -0.026314484 -0.008485402 0.011796722
-0.017955156 -0.04101111 0.0066819354 -0.01751337 -0.059088644 0.019299805 -0.039789513 -0.011425758
0.013922257 -0.0042210845 0.00033610724 0.00022156592 0.03269511 -0.052610315 0.032033596 -0.01860679
-0.037362583 -0.03124454 -0.027322635 -0.029750723 0.0891478 -0.048128333 -0.0019481898 -0.026687365
0.042610653 0.0015287072 0.036591444 0.034820616 -0.03723658 0.047012217 -0.048479084 -0.028013922
-0.06025564 0.013715594 -0.027838433 -0.028965162 -0.03597158 -0.03768575 -0.05524313 0.032744627
0.02140534 -0.009683218 0.017800052 -0.0023588168 0.03854985 0.0093060145 -0.020003865 0.012059946
-0.030742079 -0.044272907 -0.028170567 0.0066525983 0.016337123 -0.017649617 0.003887194 0.02301368
0.02320925 -0.05239933 -0.0050621177 -0.059573155 0.013169773 -0.053281967 0.023820147 0.017101899
0.014370065 -0.030176332 -0.024214337 -0.03473007 0.03635677 0.018154956 0.036601257 -0.049961526
-0.023721062 0.027990405 0.01907412 -0.02325831 -0.018473057 -0.014865121 0.040363237 0.05599337
0.014425645 -0.052010767 0.010038829 0.008846335 -0.03502005 -0.026176428 0.01117325 0.058987197
-0.05297119 -0.014534346 0.0067920825 -0.06351261 -0.023297636 0.03339361 0.0124583645 -0.06730297
0.0116951745 -0.021505661 -0.022153925 -0.037476044 0.057872064 -0.02261368 -0.016854186 -0.013561653
-0.06388448 0.020038849 0.03435114 -0.04095369 0.035152465 0.07378348 0.027627457 0.03823053
-0.011043832 -0.072519645 -0.029899612 -0.06868869 0.011055559 0.018048514 -0.070581056 0.032450244
0.03192227 -0.04058093 -0.0017861694 0.0115340175 -0.0039626486 0.046626877 0.044424813 0.031918116
-0.084306434 0.0046595694 0.02542903 0.05096813 -0.016684484 -0.00043168198 0.022794895 -0.026157184
0.07239279 0.0062716384 0.026727242 0.009926756 -0.021795256 0.026349872 -0.015596774 -0.016248275
-0.0053492943 0.017392425 0.009376343 0.005757225 0.018541459 -0.0012516809 -0.0037558444 -0.0019843653
-0.0060765403 -0.026508626 -0.008676833 -0.006717049 0.03378335 0.023787303 0.036523342 0.014638193
00000000: dbd5 17bd 034a 1e3d 4343 64bd a211 88bd
00000010: 86cf e0bb ad97 2fbd 0d9e 3fbc e673 32bd
00000020: 78c9 13bd a949 73ba 5578 72bb 391a 903d
00000030: 3c82 ba3c 06c4 8fbd 7452 74bc 15d9 483c
00000040: 58cd b2bc 8cef 3fbb cb3d fc3c cd24 7cbc
00000050: 415d ac3d b57b 36bd 882d 373d d9c4 953d
00000060: b2c7 02bd 6335 713d f2aa 933d a4ae 9c3b
00000070: 44fd e33c 8a6c c63b d52f 013d d95e a1bc
00000080: 966c 8fbc cc7e 04bc 35f3 1c3c 24e5 10bd
00000090: 2a63 92bc 4167 9bbb 585c 833c f3c2 663c
000000a0: 376a 313b 565c 0d3b b2cb ecbc 74bf f2bc
000000b0: 75d0 a43b 5589 5fbc 46d4 24b9 5c94 37bc
000000c0: 4ab3 533b 5601 f9bb 87e9 853c cdca e3bc
000000d0: 846a 93bc 7d28 8fbb d874 bcba 4683 973c
000000e0: 416b ecbc 5b6a 14bd 7ead 413d a587 703c
000000f0: 5d56 f33c 672c a73c 1916 78bd 589b 16bb
00000100: 54c7 313d 47b8 143d 65a8 c43b c1d1 373d
00000110: c3b2 853c 0e83 813c a5e6 b53b c5bc 0fbd
00000120: d0a3 1bbc aa1c 223d 2a7d 013c 1f18 493d
00000130: fabf 11bc 085f 5cbd 19b6 053c 5800 c63b
00000140: b4d7 143c daf3 d83c 26ff adbc a838 a53c
00000150: cd0a 073d b40c 00bd 30bc 58bc b5c9 bc3c
00000160: 5158 a63c e8a7 453b 822e 14bd 13c0 70bc
00000170: 7597 2b3b 7991 d7bc 5b06 0bbc 0a47 413c
00000180: b116 93bc 44fb 27bd 23f4 da3b 3378 8fbc
00000190: ef06 72bd a01a 9e3c 54fa 22bd 1a33 3bbc
000001a0: 2e1a 643c 0651 8abb 8d37 b039 2654 6839
000001b0: 4feb 053d ea7d 57bd a935 033d 446d 98bc
000001c0: 8209 19bd 8df4 ffbc b8d3 dfbc cab7 f3bc
000001d0: 1f93 b63d 3722 45bd 675a ffba 769f dabc
000001e0: 8288 2e3d e75e c83a e9e0 153d 10a0 0e3d
000001f0: 6285 18bd e28f 403d 0192 46bd 747d e5bc
00000200: 9ece 76bd 5fb7 603c 6d0d e4bc 5948 edbc
00000210: ef56 13bd 5f5c 1abd 9f46 62bd 3b1f 063d
00000220: 405a af3c 5ca6 1ebc 6ad1 913c 6196 1abb
00000230: 73e6 1d3d 4178 183c 25df a3bc 1497 453c
00000240: d0d6 fbbc 8257 35bd f6c5 e6bc 0afe d93b
00000250: 6ed5 853c ee95 90bc 4bc0 7e3b 2f87 bc3c
00000260: 5321 be3c aea0 56bd 1fe0 a5bb fb02 74bd
00000270: 08c6 573c 313e 5abd 7822 c33c 4819 8c3c
00000280: 6c70 6b3c 5b34 f7bc 255d c6bc 1e41 0ebd
00000290: d6ea 143d b4b9 943c 33eb 153d 75a4 4cbd
000002a0: ac52 c2bc 224c e53c 5441 9c3c 3688 bebc
000002b0: cf54 97bc d68c 73bc ec53 253d 4e59 653d
000002c0: 8a59 6c3c 3e09 55bd e779 243c 38f0 103c
000002d0: 2f71 0fbd f36f d6bc 0210 373c 8f9c 713d
000002e0: 52f8 58bd 7721 6ebc 1e90 de3b e612 82bd
000002f0: afda bebc bdc7 083d 2b1e 4c3c 24d6 89bd
00000300: 1e9d 3f3c a42c b0bc 267c b5bc 7b80 19bd
00000310: 420b 6d3d 5340 b9bc ca11 8abc b231 5ebc
00000320: ded5 82bd 8328 a43c c8b3 0c3d 0ebf 27bd
00000330: 08fc 0f3d cb1b 973d fa52 e23c 9e97 1c3d
00000340: 30f1 34bc 2e85 94bd 08f0 f4bc a8ac 8cbd
00000350: 6022 353c 7ada 933c cd8c 90bd 8cea 043d
00000360: edc0 023d 3038 26bd e61d eaba 2df9 3c3c
00000370: 1bd9 81bb d3fb 3e3d cbf6 353d 92bc 023d
00000380: daa8 acbd 4daf 983b 8b50 d03c f5c3 503d
00000390: e6ad 88bc 6053 e2b9 5cbc ba3c 9747 d6bc
000003a0: ac42 943d 5182 cd3b 17f3 da3c d5a3 223c
000003b0: f78b b2bc b0db d73c 9d89 7fbc 1a1b 85bc
000003c0: 2249 afbb 8f7a 8e3c 3c9f 193c 1ba7 bc3b
000003d0: 42e4 973c 710f a4ba 9d24 76bb 200c 02bb
000003e0: b71d c7bb 9e28 d9bc 4629 0ebc b11a dcbb
000003f0: 6960 0a3d 97dd c23c 8099 153d 08d5 6f3c

embedding.2.1.weight f4 [16]
0.6048998 0.5618766 0.5117961 0.54972464 0.5731069 0.59746975 0.51057607 0.57910734
0.5261624 0.49352953 0.5808211 0.5611251 0.57332414 0.6186046 0.57101107 0.6099905
00000000: b7da 1a3f 25d7 0f3f 1205 033f c1ba 0c3f
00000010: 22b7 123f c7f3 183f 1db5 023f 6140 143f
00000020: 94b2 063f e7af fc3e b1b0 143f e5a5 0f3f
00000030: 5fc5 123f df5c 1e3f c82d 123f 5628 1c3f

embedding.2.1.bias f4 [16]
-0.005279519 -0.029380023 0.006905434 -0.032992758 -0.032141183 -0.036812555 -0.0158834 -0.037528727
-0.0076492494 -0.048984677 -0.00841306 0.023541115 -0.025426976 -0.03602395 -0.06279174 -0.006727882
00000000: d1ff acbb 60ae f0bc fb46 e23b 6a23 07bd
00000010: 79a6 03bd c3c8 16bd e71d 82bc b9b7 19bd
00000020: 8ea6 fabb 28a4 48bd eed6 09bc 4cd9 c03c
00000030: 3c4c d0bc d98d 13bd f598 80bd 9175 dcbb

embedding.2.1.running_mean f4 [16]
-0.15808669 0.014299633 -0.2619806 -0.014425496 -0.35267472 -0.1727248 -0.15429914 0.04328423
-0.14083527 0.16164997 -0.2332106 -0.18259293 -0.15983506 -0.20951608 0.041124646 -0.28576759
00000000: 7ae1 21be 0249 6a3c 5222 86be ea58 6cbc
00000010: c891 b4be c5de 30be 9800 1ebe ce4a 313d
00000020: 1f37 10be 9287 253e c2ce 6ebe a4f9 3abe
00000030: cdab 23be 628b 56be 5172 283d 2150 92be

embedding.2.1.running_var f4 [16]
0.06909078 0.061060373 0.1131046 0.055254787 0.10522062 0.08225178 0.06355133 0.08834564
0.06000613 0.100801274 0.06158122 0.1203498 0.07641782 0.07077087 0.10172092 0.114228934
00000000: 787f 8d3d 711a 7a3d 62a3 e73d d852 623d
00000010: e97d d73d 9f73 a83d 3327 823d 8fee b43d
00000020: fdc8 753d e670 ce3d 973c 7c3d f579 f63d
00000030: f280 9c3d 51f0 903d 0f53 d03d dcf0 e93d

embedding.3.0.weight f4 [16, 16, 3, 3, 3]
0.0012956309 0.00463314 -0.017002419 0.012966691 0.00663545 0.0038367168 0.0151470825 0.0047401167
0.014610556 0.0010116693 0.002507953 -0.007186219 0.012745148 0.0030921518 0.002941393 0.010573403
-0.007740047 -0.017399529 0.0075365324 0.006139844 0.0039191544 -0.009424048 -0.010959454 0.0021327964
0.00854081 -0.0020194014 -0.023157129 -0.006696708 -0.03082701 -0.039104845 0.0050567524 -0.015326792
-0.019248553 0.005164405 -0.017900215 -0.019535948 0.004699688 0.0013803806 -0.022540018 -0.016094783
0.007824256 0.024723256 -0.007628222 -0.016641501 0.03597218 0.0023234696 -0.019360445 0.020735528
-0.0002966835 0.01274548 0.020387853 -0.006498942 0.0014701968 -0.0066267033 -0.009588985 0.001894108
-0.0010477343 0.005916381 0.010012583 -0.010516822 -9.306497e-05 0.0073875 0.0015306529 0.0021206697
0.013209994 0.0017984719 0.00033830685 0.008033622 -0.0001503067 0.0035580562 0.0136164315 0.0033381665
0.027521396 0.005915874 0.002769871 0.010690036 0.011721314 0.00023996284 0.011979717 0.016226487
0.022479339 -0.025268614 -0.008978329 -0.014095729 -0.01792443 -0.0040453863 -0.0019067182 -0.014855066
0.0021457493 -0.005549538 -0.024895886 -0.015537941 0.0011669558 -0.011476239 0.014743866 0.018133814
-0.0037787042 0.027621066 -0.021443984 -0.023711694 0.009419117 0.017251277 0.012128911 0.019247012
0.027505474 0.0077957287 0.013695811 -0.02025403 -0.0017806592 -0.0040169777 -0.0011035561 -0.013368712
0.0014596635 -0.010732663 0.0022534067 -0.014610729 -0.004972511 0.0071283723 -0.006561036 -0.00085147284
-0.0145689035 0.0057569887 -0.0021362058 0.012114386 0.014686367 0.012758349 -0.00903231 -0.00991066
0.0041126804 0.011792498 0.035230584 0.028679177 0.038565192 0.015878499 0.003392401 -0.018075075
-0.012401773 -0.0054597366 0.0046079317 0.017421292 0.008597127 0.011506987 0.023240013 0.01615451
0.008382312 -0.004556351 -0.0016931185 -0.002823431 -0.0036270763 -0.017158542 -0.009514817 0.0006853949
-0.02357633 0.012155641 -0.004476506 0.013390764 0.014729802 0.02234559 0.008976687 0.013336522
0.007271447 -0.0034405035 -0.016703313 -0.014410427 -0.015105252 -0.017074607 -0.024160828 -0.005774619
0.0037712157 -0.004668748 -0.0049286336 0.0069968784 -0.016931903 -0.021835672 -0.008447141 -0.012292031
0.0061247824 -0.02891363 0.0014643964 0.010954184 -0.003732259 0.008042976 -0.012469043 0.0076340623
0.03713006 0.039087746 0.012115862 0.048796557 0.03237059 -0.029119808 -0.035378944 -0.03174439
-0.0135170845 -0.0045548887 -0.024254555 0.002901587 0.0038300378 -0.010066266 -0.031576768 -0.012207291
-0.034699317 -0.009847827 -0.0031242927 -0.023840822 -0.025351545 -0.00039262007 0.004413643 -0.008265885
0.010914875 2.2293701e-05 0.00731929 0.03240141 0.011582967 0.012593308 0.014416263 0.020664647
-0.010981859 -0.0014160644 -0.011095385 -0.0055248984 -0.0066977963 -0.025390513 -0.008781577 0.0025595762
-0.024835566 -0.004687876 0.017618334 0.012767488 -0.0111088175 0.005132641 0.036921147 -0.00986317
0.0035860734 0.013741023 0.0065216245 0.005051437 0.017265957 -0.008937703 -0.0025059292 -0.0032430552
-0.013218708 -0.027791103 -0.0030023619 -0.02572246 -0.0137277935 -0.01348763 -0.021192122 -0.014002404
-0.016318675 0.0002790327 -0.0065080137 -0.008629339 0.014677114 0.015418251 -0.008373065 0.008705824
00000000: 29d2 a93a 98d1 973b a848 8bbc 3e72 543c
00000010: 306e d93b 6d71 7b3b 782b 783c fb52 9b3b
00000020: 1d61 6f3c fd99 843a 785c 243b 607a ebbb
00000030: 06d1 503c b3a5 4a3b 63c4 403b 113c 2d3c
00000040: 38a0 fdbb 7589 8ebc 04f5 f63b bf30 c93b
00000050: 406c 803b 5267 1abc 488f 33bc 63c6 0b3b
00000060: c1ee 0b3c ef57 04bb 05b4 bdbc 0f70 dbbb
00000070: ed88 fcbc 672c 20bd 1db3 a53b 3a1d 7bbc
00000080: 24af 9dbc 2b3a a93b 79a3 92bc da09 a0bc
00000090: d7ff 993b e3ed b43a d8a5 b8bc 35d9 83bc
000000a0: 4f31 003c 6d88 ca3c 2af6 f9bb c253 88bc
000000b0: 9157 133d 5a45 183b cc99 9ebc 8edd a93c
000000c0: 2f8c 9bb9 6bd2 503c 6d04 a73c 14f5 d4bb
000000d0: 9eb3 c03a d124 d9bb 1e1b 1dbc b843 f83a
000000e0: 2154 89ba 33de c13b d10b 243c c04e 2cbc
000000f0: e02b c3b8 d712 f23b 30a0 c83a effa 0a3b
00000100: bb6e 583c b4ba eb3a c75e b139 749f 033c
00000110: a69b 1db9 472e 693b 7417 5f3c 24c5 5a3b
00000120: 8d74 e13c f3d9 c13b b986 353b 4325 2f3c
00000130: c10a 403c 899e 7b39 9346 443c 69ed 843c
00000140: 9726 b83c 2000 cfbc d719 13bc c6f1 66bc
00000150: 41d6 92bc 298f 84bb d9ea f9ba aa62 73bc
00000160: b39f 0c3b e6d8 b5bb 75f2 cbbc d992 7ebc
00000170: 8af4 983a d606 3cbc 4290 713c 5d8d 943c
00000180: 23a4 77bb 9345 e23c 4bab afbc 073f c2bc
00000190: a452 1a3c 8d52 8d3c 57b8 463c e9ab 9d3c
000001a0: 2953 e13c 5073 ff3b 6564 603c c8eb a5bc
000001b0: 0265 e9ba daa0 83bb 33a5 90ba 7108 5bbc
000001c0: 2e52 bf3a 0dd8 2fbc e4ad 133b d761 6fbc
000001d0: 72f0 a2bb 1f95 e93b f6fd d6bb 6035 5fba
000001e0: 69b2 6ebc 1fa5 bc3b 96ff 0bbb 6b7b 463c
000001f0: 169f 703c 6508 513c 41fc 13bc 5260 22bc
00000200: aac3 863b 5235 413c f24d 103d 98f0 ea3c
00000210: 89f6 1d3d a013 823c 0b53 5e3b 2e12 94bc
00000220: ce30 4bbc 97e7 b2bb 22fe 963b 19b7 8e3c
00000230: f7da 0c3c cd87 3c3c d761 be3c 7756 843c
00000240: f755 093c 714d 95bb a1eb ddba 5009 39bb
00000250: 3eb4 6dbb 1290 8cbc 09e4 1bbc 13ac 333a
00000260: 2623 c1bc 7428 473c a7af 92bb ef64 5b3c
00000270: 4455 713c 190e b73c f412 133c 6d81 5a3c
00000280: 5245 ee3b 127a 61bb 63d5 88bc b619 6cbc
00000290: 057c 77bc 0ce0 8bbc eeec c5bc 0439 bdbb
000002a0: 8026 773b 4cfc 98bb 6080 a1bb 1246 e53b
000002b0: c6b4 8abc b9e0 b2bc e165 0abc 8464 49bc
000002c0: 66b2 c83b 47dc ecbc fdf0 bf3a 2e79 333c
000002d0: ea98 74bb b0c6 033c f54a 4cbc 2827 fa3b
000002e0: b115 183d 791a 203d 9c81 463c e6de 473d
000002f0: 0697 043d aa8c eebc 83e9 10bd 6806 02bd
00000300: c376 5dbc 2d41 95bb 7db1 c6bc 8d28 3e3b
00000310: 5f01 7b3b fbec 24bc a456 01bd 1701 48bc
00000320: df20 0ebd c858 21bc efc0 4cbb d44d c3bc
00000330: 0bae cfbc 93d8 cdb9 52a0 903b a26d 07bc
00000340: 4ed4 323c 5c03 bb37 a8d6 ef3b 57b7 043d
00000350: 7cc6 3d3c 2a54 4e3c 3132 6c3c e848 a93c
00000360: 41ed 33bc 3d9b b9ba 6bc9 35bc 350a b5bb
00000370: 3079 dbbb c4ff cfbc 9be0 0fbc 90be 273b
00000380: f573 cbbc c19c 99bb 5354 903c ba2e 513c
00000390: c201 36bc b72f a83b a13a 173d 2299 21bc
000003a0: 5404 6b3b 0722 613c 5ab3 d53b 8686 a53b
000003b0: 5671 8d3c 726f 12bc 843a 24bb 7089 54bb
000003c0: 4893 58bc 2baa e3bc 46c3 44bb e9b7 d2bc
000003d0: 8aea 60bc 38fb 5cbc 1a9b adbc 576a 65bc
000003e0: beae 85bc 234b 9239 2d41 d5bb 1262 0dbc
000003f0: 4778 703c d59c 7c3c 2e2f 09bc dfa2 0e3c

embedding.3.1.weight f4 [16]
0.44073072 0.66129005 0.41309142 0.521661 0.38362697 0.5307681 0.56380993 0.6496093
0.43425867 0.49921098 0.49815804 0.5618572 0.49980846 0.50670713 0.5781887 0.38233942
00000000: 75a7 e13e 4e4a 293f b880 d33e 938b 053f
00000010: c16a c43e 6be0 073f d955 103f cc4c 263f
00000020: 2757 de3e 9598 ff3e 920e ff3e e0d5 0f3f
00000030: e5e6 ff3e 8fb7 013f 2d04 143f fec1 c33e

embedding.3.1.bias f4 [16]
-0.025907008 -0.0059072115 -0.052561942 -0.03201046 -0.07960232 -0.05313051 -0.055071905 0.008114513
-0.05896869 -0.037241675 0.0036036752 -0.046004042 -0.027940137 -0.056242708 -0.03766908 -0.07389301
00000000: ef3a d4bc 4891 c1bb 314b 57bd 661d 03bd
00000010: 8b06 a3bd 619f 59bd 1493 61bd bcf2 043c
00000020: 2789 71bd ba8a 18bd a32b 6c3b bc6e 3cbd
00000030: b7e2 e4bc c15e 66bd e54a 1abd 3855 97bd

embedding.3.1.running_mean f4 [16]
-0.2659246 0.13936228 -0.4995928 0.10452902 -0.7916928 0.34912235 0.27088356 -0.2684322
-0.86477625 -0.07700907 0.020183176 0.64352137 0.00018611523 0.1997665 0.30634028 -0.70771897
00000000: 4527 88be fcb4 0e3e a1ca ffbe 5013 d63d
00000010: 61ac 4abf 2ac0 b23e 40b1 8a3e f26f 89be
00000020: fa61 5dbf eeb6 9dbd 3057 a53c d1bd 243f
00000030: ed27 4339 978f 4c3e a2d8 9c3e 122d 35bf

embedding.3.1.running_var f4 [16]
0.24921767 0.12222739 0.09421174 0.12276192 0.29044262 0.101499274 0.0869498 0.13706173
0.39177236 0.20260546 0.12113839 0.17685787 0.18071228 0.12770638 0.21649072 0.19689661
00000000: eb32 7f3e 5b52 fa3d 16f2 c03d 9a6a fb3d
00000010: e5b4 943e dade cf3d bd12 b23d e959 0c3e
00000020: 6396 c83e ce77 4f3e 6717 f83d 3b1a 353e
00000030: a40c 393e 76c5 023e beaf 5d3e 449f 493e

embedding.4.0.weight f4 [32, 16, 3, 3, 3]
-0.011935255 0.0033757712 0.0021071548 -0.026093362 -0.01434863 -0.0068249423 -0.019223602 -0.019910881
-0.016813792 0.005505929 0.013332039 0.025813598 -0.0026060287 0.001703007 0.007127215 0.021465324
-0.007923415 0.0017571214 0.010814227 0.0007014025 0.0058154524 0.0129538495 0.013038933 0.009461304
0.023764407 0.0052226055 0.0010292698 -0.009157821 0.0077527286 -0.018268617 -0.013231546 0.009575679
0.035635456 -0.0043328446 -0.0026694455 0.001179682 0.012133737 -0.0012465077 -0.024774173 0.017149402
0.031844273 0.031438258 0.009768719 0.009321886 0.050964136 -0.008138448 0.060630016 -0.017226126
0.010329614 0.06367641 0.018076854 -0.028210308 0.0115475925 -0.023358017 -0.011640215 -0.00053011696
-0.0140009485 -0.010268506 -0.00093106955 -0.0032926288 -0.009443413 0.0052311667 -0.0077551883 0.00336596
-0.004295119 -0.0077910265 0.0056634736 -0.005517047 -0.0042192456 -0.00083507015 0.0021981634 -0.004630788
-0.011592595 -0.009724534 -0.011595957 -0.0061415383 -0.006510811 -0.005104787 -0.003726003 -0.00846005
-0.008349805 0.002294738 0.0122657865 -0.01827068 0.005867403 0.015973702 -0.007252327 0.009393574
-0.021054223 -0.005352077 0.009849497 -0.011706953 -0.0036228404 0.012121564 -0.01696383 0.006117524
0.029295709 -0.009688225 -0.018342054 0.009469106 0.0077711404 -0.023618177 0.0034429687 -0.030061537
-0.0027636825 -0.006024819 -0.017131101 -0.028129958 0.0017850159 0.00633485 0.001421453 -0.0048809107
-0.0051129754 -0.0074702245 -0.002621926 -0.0021586285 0.0005680969 -0.0015060261 -0.007835766 -0.0070254793
-0.0022423153 -0.007564037 -0.00768722 -0.0038279346 -0.012540074 -0.0121212145 -0.010699798 -0.007686127
-0.0040867715 -0.01622733 -0.004944247 -0.0050679315 -0.009088742 -0.008998768 -0.0051027024 -0.028562596
-0.006597127 0.027660158 0.021718984 0.014380457 0.002173071 -0.009440331 -0.011543866 -0.008667661
-0.0014404104 0.00029012703 0.022663418 -0.01176293 -0.009387934 0.0055735586 -0.058357306 -0.008000804
0.004727438 0.021956788 0.021960564 0.021675723 -0.007906835 -0.009215142 0.023359448 -0.015753437
0.007030499 -0.009747208 -0.02908583 0.036781546 0.019361347 -0.03531118 0.009552385 0.04114442
-0.029173467 -0.00012773625 0.032484252 -0.029921459 0.009121403 0.0044869427 -0.01938669 0.015292408
0.03128558 -0.005403679 0.0006335587 0.026973626 -0.040085644 0.012599325 0.024629826 -0.049215607
0.0010452544 0.019077418 -0.018328065 0.032516893 0.02565306 0.013785402 -0.0057959743 0.0050828815
-0.002198173 0.0081965 -0.029467968 0.0024081892 -0.0067081363 -0.04469169 0.017131245 -0.00827331
-0.022305176 -0.0064193825 0.0145194065 -0.033488505 0.008085168 0.017067332 -0.03564268 0.012154604
0.017544976 -0.009860514 -0.009277454 0.021795137 -0.023257468 0.023756085 0.05000087 -0.022105627
-0.0010550491 0.014617155 0.013580498 -0.00042217784 -0.010889294 -0.0065440075 -0.00015266809 -0.009582762
-0.007335015 -0.0077054193 -0.0037364305 0.0049105585 -0.0007540747 -0.009870721 -0.0112874955 -0.0072606755
0.0018412527 -0.018504739 -0.009434641 -0.010245092 -0.0020495914 -0.0054327957 -0.0016925625 -2.3508335e-05
-0.0017318855 -0.0047402964 -0.0060213604 -0.017351676 -0.015408487 -0.00851594 0.0004206827 0.0025053
-0.017498627 0.0014606774 -0.0042876597 -0.0063777957 -0.02370486 -0.018712306 0.00030321197 0.031598296
00000000: 168c 43bc 0b3c 5d3b 3118 0a3b bfc1 d5bc
00000010: 8416 6bbc c4a3 dfbb d17a 9dbc 251c a3bc
00000020: 14bd 89bc 146b b43b a06e 5a3c 0a77 d33c
00000030: e8c9 2abb 6f37 df3a 6a8b e93b 0cd8 af3c
00000040: 36d1 01bc 364f e63a 282e 313c 53de 373a
00000050: 8d8f be3b 623c 543c 40a1 553c 9603 1b3c
00000060: 93ad c23c 6422 ab3b 90e8 863a af0a 16bc
00000070: 9a0a fe3b 11a8 95bc 20c9 58bc 4fe3 1c3c
00000080: 7cf6 113d 89fa 8dbb ddf1 2ebb 8f9f 9a3a
00000090: 95cc 463c dc61 a3ba 35f3 cabc e77c 8c3c
000000a0: 246f 023d 67c5 003d fa0c 203c d3ba 183c
000000b0: c5bf 503d 2057 05bc 2e57 783d ce1d 8dbc
000000c0: 8b3d 293c c768 823d e915 943c 4e19 e7bc
000000d0: 1d32 3d3c 5059 bfbc 9ab6 3ebc 8cf7 0aba
000000e0: 3c64 65bc 3c3d 28bc 0513 74ba 25c9 57bb
000000f0: 8bb8 1abc 356a ab3b 3c1f febb 7097 5c3b
00000100: 12be 8cbb de4b ffbb a994 b93b 58c8 b4bb
00000110: 9941 8abb 9ce8 5aba 100f 103b debd 97bb
00000120: deee 3dbc a753 1fbc f8fc 3dbc f53e c9bb
00000130: a458 d5bb 0f46 a7bb f52f 74bb 069c 0abc
00000140: 9fcd 08bc 5163 163b 70f6 483c 65ac 95bc
00000150: 5843 c03b 48db 823c eea4 edbb 81e7 193c
00000160: e879 acbc 7a60 afbb c95f 213c 85ce 3fbc
00000170: 2d6d 6dbb 8699 463c bbf7 8abc 8375 c83b
00000180: 8efd ef3c 5cbb 1ebc 1342 96bc 4f24 1b3c
00000190: 0da5 fe3b e87a c1bc 6ea3 613b 9d43 f6bc
000001a0: e61e 35bb d86b c5bb 8656 8cbc cc70 e6bc
000001b0: 32f7 e93a 9394 cf3b 0c50 ba3a 0cf0 9fbb
000001c0: bf8a a7bb c9c8 f4bb 9ed4 2bbb c777 0dbb
000001d0: 56ec 143a da65 c5ba 9661 00bc fe35 e6bb
000001e0: cff3 12bb bedb f7bb 13e5 fbbb 16de 7abb
000001f0: e274 4dbc 0f98 46bc 354e 2fbc e8db fbbb
00000200: 53ea 85bb 2def 84bc 5a03 a2bb e410 a6bb
00000210: f2e8 14bc 926f 13bc 9234 a7bb 1bfc e9bc
00000220: b62c d8bb 8e97 e23c 03ec b13c 029c 6b3c
00000230: 156a 0e3b 9eab 1abc 7c22 3dbc ce02 0ebc
00000240: 27cc bcba 311c 9839 a2a8 b93c 4eb9 40bc
00000250: d9cf 19bc 66a2 b63b 1208 6fbd ce15 03bc
00000260: a0e8 9a3b b9de b33c a4e6 b33c 4991 b13c
00000270: ab8b 01bc 1bfb 16bc 505c bf3c 5a0d 81bc
00000280: 1a60 e63b c1b2 1fbc 6845 eebc 3fa8 163d
00000290: b09b 9e3c 75a2 10bd 9b81 1c3c 0d87 283d
000002a0: 32fd eebc f0f0 05b9 350e 053d d91d f5bc
000002b0: f071 153c 3407 933b d6d0 9ebc 028d 7a3c
000002c0: 4f25 003d 5811 b1bb 6815 263a cbf7 dc3c
000002d0: d830 24bd 666d 4e3c 7dc4 c93c 4e96 49bd
000002e0: eb00 893a 3f48 9c3c bd24 96bc 6f30 053d
000002f0: 5e26 d23c 2bdc 613c 28ec bdbb 4d8e a63b
00000300: 390f 10bb 9d4a 063c cf66 f1bc b6d2 1d3b
00000310: edcf dbbb a20e 37bd d356 8c3c c78c 07bc
00000320: 58b9 b6bc af59 d2bb cee2 6d3c 3e2b 09bd
00000330: a777 043c cad0 8b3c 0ffe 11bd 1b24 473c
00000340: 7bba 8f3c fe8d 21bc 7600 18bc b78b b23c
00000350: 7286 bebc 1f9c c23c b6cd 4c3d dc16 b5bc
00000360: 9349 8aba cb7c 6f3c bd80 5e3c c057 ddb9
00000370: 0269 32bc 1d6f d6bb 8715 20b9 0401 1dbc
00000380: 915a f0bb be7d fcbb e7de 74bb c0e8 a03b
00000390: 19ad 45ba ceb8 21bc 30ef 38bc f6ea edbb
000003a0: 3056 f13a 4097 97bc c193 1abc 08db 27bc
000003b0: 7052 06bb 9805 b2bb f9d8 ddba c433 c5b7
000003c0: 6f00 e3ba 7d54 9bbb d54e c5bb 1a25 8ebc
000003d0: e173 7cbc 7186 0bbc 148f dc39 f62f 243b
000003e0: 4859 8fbc 3374 bf3a 7f7f 8cbb d4fc d0bb
000003f0: b230 c2bc 8d4a 99bc 6cf8 9e39 376d 013d

embedding.4.1.weight f4 [32]
0.45728433 0.43695864 0.38869467 0.42794248 0.47986287 0.56140816 0.40336588 0.49811587
0.3796735 0.3879647 0.6079626 0.41772988 0.5288887 0.5427266 0.50598884 0.3768154
0.46601954 0.39325675 0.45764178 0.3897914 0.41845578 0.47817865 0.40050077 0.3799105
0.38923422 0.37984067 0.37925422 0.40065274 0.569938 0.41558218 0.5109525 0.42484835
00000000: 2c21 ea3e 0bb9 df3e fd02 c73e 471b db3e
00000010: 96b0 f53e 72b8 0f3f f985 ce3e 0b09 ff3e
00000020: 9164 c23e 4fa3 c63e 70a3 1b3f b1e0 d53e
00000030: 4065 073f 21f0 0a3f 7c88 013f f3ed c03e
00000040: 1d9a ee3e f358 c93e 0650 ea3e bd92 c73e
00000050: d63f d63e d5d3 f43e 700e cd3e a183 c23e
00000060: b549 c73e 7a7a c23e 9c2d c23e 5b22 cd3e
00000070: 75e7 113f 30c7 d43e c8cd 023f b985 d93e

embedding.4.1.bias f4 [32]
-0.031320415 -0.029049896 -0.028589085 -0.023770992 -0.024620704 -0.05614667 -0.024939166 -0.028253578
-0.024540156 -0.012742907 -0.022939475 -0.01551375 -0.01919528 -0.03423964 -0.03754737 -0.031685468
-0.011673356 -0.023014907 -0.02734249 -0.023006128 -0.011742686 -0.030615801 -0.018397495 -0.023926223
-0.022009576 -0.031036654 -0.018565692 -0.030646812 -0.04137828 -0.017289842 -0.038681276 -0.023719408
00000000: d649 00bd 0cfa edbc a833 eabc 62bb c2bc
00000010: 5cb1 c9bc 0dfa 65bd 394d ccbc 0c74 e7bc
00000020: 7008 c9bc a0c7 50bc 91eb bbbc 622d 7ebc
00000030: 6b3f 9dbc dd3e 0cbd 45cb 19bd 9fc8 01bd
00000040: 9b41 3fbc c289 bcbc 5cfd dfbc 5977 bcbc
00000050: 6564 40bc fdcd fabc 58b6 96bc ed00 c4bc
00000060: 6d4d b4bc 9540 febc 1417 98bc 060f fbbc
00000070: 457c 29bd 6da3 8dbc 4270 1ebd 344f c2bc

embedding.4.1.running_mean f4 [32]
-0.07343349 -0.058939043 0.026215192 0.04717579 0.10641788 0.033719443 -0.03524726 -0.089866765
-0.118836015 -0.015484397 -0.14094795 -0.17637558 -0.0045532943 0.037280884 -0.046148285 -0.112208396
-0.02850329 -0.15764065 -0.051821068 -0.11113706 -0.07268087 0.1455863 -0.10735415 -0.14550297
-0.12294678 -0.13468085 -0.10068165 -0.037599776 0.041930825 -0.049219944 0.06013023 0.0804208
00000000: 4c64 96bd 116a 71bd 3ec1 d63c 673b 413d
00000010: 9ef1 d93d 661d 0a3d 6e5f 10bd 110c b8bd
00000020: 4c60 f3bd 45b2 7dbc a954 10be cd9b 34be
00000030: cd33 95bb d7b3 183d fc05 3dbd 84cd e5bd
00000040: bb7f e9bc 8d6c 21be 5442 54bd d49b e3bd
00000050: b5d9 94bd 9314 153e 7edc dbbd bbfe 14be
00000060: 85cb fbbd c7e9 09be 2e32 cebd 3902 1abd
00000070: a8bf 2b3d da9a 49bd 1e4b 763d a9b3 a43d

embedding.4.1.running_var f4 [32]
0.035436966 0.038741894 0.03238082 0.03505936 0.038882785 0.057731412 0.027358491 0.05466276
0.016093997 0.012166158 0.07200379 0.037498944 0.052603267 0.04658961 0.04710456 0.016027804
0.04741152 0.030645786 0.039439198 0.026689716 0.024598863 0.038067754 0.023661254 0.016977267
0.02219481 0.012182426 0.025770964 0.023505835 0.050310865 0.024784597 0.037581094 0.026392914
00000000: 5a26 113d d2af 1e3d c0a1 043d 679a 0f3d
00000010: 8e43 1f3d c677 6c3d ea1e e03c 0fe6 5f3d
00000020: 8fd7 833c 9154 473c b976 933d 7e98 193d
00000030: 8676 573d bfd4 3e3d b6f0 403d be4c 833c
00000040: 9532 423d df0c fb3c ff8a 213d 64a4 da3c
00000050: 8e83 c93c efec 1b3d 3fd5 c13c e913 8b3c
00000060: e4d1 b53c cc98 473c a11d d33c 4f8f c03c
00000070: c412 4e3d 1109 cb3c a2ee 193d f435 d83c

embedding.5.0.weight f4 [32, 32, 3, 3, 3]
-0.017025229 -0.007547342 0.0019359177 -0.016821478 -0.012571412 -0.0027998975 -0.0031028634 -0.0067618755
-0.012567201 0.011595066 -0.004640584 0.00089998665 -0.00094386615 -0.0078081293 0.011161483 -0.0031723985
-0.008840882 -0.0188476 0.010367194 0.003964219 0.0029507615 0.016760627 0.0018505922 0.003308115
-0.010319948 -0.0096970545 0.0035441369 0.0020188957 -0.00023795852 -0.007573264 -0.0027535495 -0.013002726
-0.018757636 -0.012699483 -0.013352274 -0.0065903943 -0.013281587 -0.0016497568 0.0007902142 0.025217332
0.011401417 0.036447413 0.0075983773 0.020177964 -0.0016351289 -0.020842034 -0.023985093 -0.0076480955
0.0117637655 -0.03252511 -0.005072075 -0.010129469 0.02093563 0.022395505 0.0053911065 0.00234583
0.0028499614 0.004542261 -0.0016425729 -0.0033691989 -0.00033883355 0.0035237523 -0.0037604915 -0.0025540595
-0.004830051 0.005849803 0.001868961 0.00052346743 0.008968083 0.0015605277 -0.0060024783 -0.0057425224
-0.007944468 -0.014181701 0.008143562 0.013199276 0.014967201 0.0073805163 -0.0011336178 -8.188229e-05
-0.003081495 -0.00025768732 0.01516825 0.0030940347 -0.00092101574 0.0082950145 -0.010671373 -0.0017487588
-0.00034840518 -0.007185934 0.00059576216 0.015832892 0.006619273 0.022867175 0.0061812014 0.0022605157
-0.01132545 -0.00468312 0.004868207 -0.011986213 -0.0010367893 0.01911391 0.023687165 -0.0022958145
0.01087378 0.0009989775 -0.004745112 0.0109698605 -0.008832695 -0.0116918115 -0.0015253908 -0.0031902734
-0.013468839 -0.004432455 -0.0018196129 0.005287746 -0.0016080922 -0.018634114 0.010629751 -0.01195497
0.016932977 0.005601107 0.00685615 0.010693255 0.0031122542 0.009403725 0.008368222 0.0445052
0.008970612 -0.019185018 -0.018488782 -0.021340849 -0.00846022 -0.015928118 0.0016575103 0.0005119978
0.010894449 0.012106549 0.0069607473 0.0025616272 0.011239398 0.0010677666 -0.00046630856 0.0012157846
-0.032593723 -0.025090236 -0.012728288 -0.010122486 0.049863856 0.05205686 -0.017187826 -0.0057518748
0.016085058 -0.02388783 -0.04871822 -0.0065376847 -0.027813137 -0.020389942 0.022353398 -0.009512926
-0.009708091 0.004994575 -0.0027992607 -0.009226659 -0.008722467 -0.0053161155 -0.01378038 -0.012053314
0.001090026 -0.00502507 -0.0065490254 0.0008302799 0.016187146 -0.007777232 0.01510306 0.020515503
-0.008077172 0.0017288018 -0.0003451919 -0.011848653 0.0005487522 0.016676452 -0.009160464 -0.0066456543
-0.012133966 -0.019487245 -0.0010620605 -0.005635965 0.008486173 -0.0065069566 0.005446015 -0.0027886173
0.0040829484 -0.00444962 -0.015557575 -0.0043589566 -0.0020774242 -0.012110909 -0.020240888 0.002786131
0.014424489 0.010051194 0.012149233 0.05491476 -0.0055861026 0.021794125 0.019055352 -0.017689275
-0.04703217 -0.006175898 -0.0064201984 -0.04335056 0.0039736284 -0.008435982 0.012767841 0.018799106
-0.0015130559 0.0059046075 -0.0012474521 -0.0010273189 0.00428844 -0.0017214846 -0.0036624742 -0.0006010978
-0.0028235659 -0.0020213427 0.0035716791 -0.0072873547 0.0050060693 0.0042339433 -0.00078534824 0.0015380712
-0.0013242573 -0.0012875816 -0.005909472 0.0029317697 -0.0020266841 0.014559286 0.0026212262 0.0012553614
0.0035190466 -0.0052959695 -0.0021389516 0.0016729288 0.0049527325 -0.0036083253 0.0013215924 -0.0008541601
-0.0055901525 -0.00040747548 0.0015703753 -0.00545671 0.015888812 0.0077447514 -0.02068451 0.0031254806
00000000: 7e78 8bbc b24f f7bb 9ebe fd3a 32cd 89bc
00000010: 53f8 4dbc 7c7e 37bb 6959 4bbb b992 ddbb
00000020: a9e6 4dbc 3bf9 3d3c 0a10 98bb 15ed 6b3a
00000030: c96d 77ba 56db ffbb a7de 363c 04e8 4fbb
00000040: 59d9 10bc 4866 9abc 2adb 293c 47e6 813b
00000050: 9061 413b 954d 893c 928f f23a f6cc 583b
00000060: 0015 29bc 65e0 1ebc c044 683b 734f 043b
00000070: 8184 79b9 2529 f8bb e574 34bb 6309 55bc
00000080: 9da9 99bc 7e11 50bc 7fc3 5abc 3cf4 d7bb
00000090: 039b 59bc a73c d8ba 6126 4f3a 9494 ce3c
000000a0: 02cd 3a3c e249 153d cffb f83b 424c a53c
000000b0: d251 d6ba eabc aabc 637c c4bc e09c fabb
000000c0: cfbc 403c 0d39 05bd a633 a6bb 13f6 25bc
000000d0: 3381 ab3c c776 b73c e1a7 b03b 7fbc 193b
000000e0: 6bc6 3a3b 3fd7 943b 9a4b d7ba c7cd 5cbb
000000f0: 78a5 b1b9 c1ee 663b 9472 76bb 0262 27bb
00000100: 6845 9ebb b4af bf3b edf7 f43a 4e39 093a
00000110: deee 123c 9f8a cc3a 70b0 c4bb c52b bcbb
00000120: 8429 02bc 5d5a 68bc 936c 053c c741 583c
00000130: fe38 753c 42d8 f13b e795 94ba 38b8 abb8
00000140: e8f2 49bb 351a 87b9 4084 783c 4ac5 4a3b
00000150: 5270 71ba d0e7 073c fcd6 2ebc 9c36 e5ba
00000160: 27aa b6b9 fc77 ebbb ec2c 1c3a fbb3 813c
00000170: 7de6 d83b f153 bb3c ad8b ca3b 2925 143b
00000180: 618e 39bc dc74 99bb 7b85 9f3b d261 44bc
00000190: e0e4 87ba c694 9c3c 960b c23c 6075 16bb
000001a0: f027 323c 1ff0 823a e27c 9bbb eeba 333c
000001b0: 02b7 10bc 038f 3fbc 9fef c7ba e813 51bb
000001c0: 68ac 5cbc 213e 91bb 1480 eeba d444 ad3b
000001d0: 9fc6 d2ba 92a6 98bc 6828 2e3c c7de 43bc
000001e0: 07b7 8a3c 7e89 b73b 8ea9 e03b c332 2f3c
000001f0: f6f6 4b3b 1512 1a3c de1a 093c 164b 363d
00000200: 79f9 123c e629 9dbc c975 97bc 01d3 aebc
00000210: bc9c 0abc af7b 82bc d140 d93a 9737 063a
00000220: a27e 323c 8c5a 463c fb16 e43b f9e0 273b
00000230: 7425 383c 4df4 8b3a e07a f4b9 f65a 9f3a
00000240: ff80 05bd 0a8a cdbc 4f8a 50bc c9d8 25bc
00000250: 0b3e 4c3d 9339 553d 7ccd 8cbc 397a bcbb
00000260: d0c4 833c 69b0 c3bc c28c 47bd 133a d6bb
00000270: 60d8 e3bc cf08 a7bc 791e b73c 1bdc 1bbc
00000280: af0e 1fbc 88a9 a33b cd73 37bb 6a2b 17bc
00000290: aee8 0ebc cf32 aebb 1ac7 61bc 437b 45bc
000002a0: 34df 8e3a 58a9 a4bb 3599 d6bb 24a7 593a
000002b0: e89a 843c 27d8 febb d372 773c 2110 a83c
000002c0: 1d56 04bc f698 e23a dffa b4b9 da20 42bc
000002d0: 23da 0f3a 0e9d 883c c515 16bc cac3 d9bb
000002e0: 8bcd 46bc b7a3 9fbc d634 8bba e7ad b8bb
000002f0: 9709 0b3c 4f38 d5bb 7c74 b23b 3cc1 36bb
00000300: 41ca 853b 1ece 91bb 33e5 7ebc 94d5 8ebb
00000310: 6525 08bb d66c 46bc 38d0 a5bc 8697 363b
00000320: b154 6c3c c3ad 243c 940d 473c 4dee 603d
00000330: a00b b7bb 9889 b23c f819 9c3c 19e9 90bc
00000340: cea4 40bd 305f cabb 8760 d2bb 5b90 31bd
00000350: 3635 823b 1337 0abc 3530 513c 9500 9a3c
00000360: bb51 c6ba 707b c13b 8c81 a3ba 1aa7 86ba
00000370: 0b86 8c3b 70a3 e1ba 1f06 70bb fe92 1dba
00000380: 930b 39bb 8178 04bb d512 6a3b c3ca eebb
00000390: f409 a43b e4bc 8a3b d4df 4dba 1b99 c93a
000003a0: b492 adba 12c4 a8ba 3ea4 c1bb ef22 403b
000003b0: 1ed2 04bb 128a 6e3c e1c8 2b3b f08a a43a
000003c0: ce9f 663b d089 adbb a72d 0cbb 2d46 db3a
000003d0: 884a a23b a779 6cbb 4839 ad3a b7e9 5fba
000003e0: 992d b7bb 6fa2 d5b9 0dd5 cd3a 33ce b2bb
000003f0: 4129 823c afc7 fd3b 9072 a9bc ddd4 4c3b

embedding.5.1.weight f4 [32]
0.44480348 0.3742419 0.39266807 0.39051083 0.3945278 0.38116312 0.3953131 0.3711917
0.41302118 0.36954996 0.45482355 0.43494424 0.39988238 0.41002804 0.37203526 0.3723868
0.38363156 0.37652123 0.4475537 0.39751834 0.4765972 0.3766849 0.37639225 0.38502
0.37682715 0.3760507 0.44866383 0.37734878 0.38564578 0.38278848 0.37157422 0.38124663
00000000: 48bd e33e a29c bf3e ca0b c93e 09f1 c73e
00000010: 8cff c93e d027 c33e 7b66 ca3e d70c be3e
00000020: 8377 d33e a735 bd3e a2de e83e 03b1 de3e
00000030: 62bd cc3e 32ef d13e 687b be3e 7ca9 be3e
00000040: 5b6b c43e 64c7 c03e c225 e53e 8687 cb3e
00000050: 8c04 f43e d8dc c03e 7cb6 c03e 5721 c53e
00000060: 7def c03e b889 c03e 44b7 e53e dc33 c13e
00000070: 5d73 c53e dafc c33e fa3e be3e c232 c33e

embedding.5.1.bias f4 [32]
-0.013790641 -0.03247138 -0.025248628 -0.027103318 -0.018176949 -0.025773622 -0.02427713 -0.033043798
-0.02999453 -0.03271951 -0.03138412 -0.0112352595 -0.017295174 -0.04217783 -0.0344982 -0.027751727
-0.027642546 -0.035646975 -0.034021985 -0.022564718 -0.034586187 -0.029346554 -0.030498888 -0.026205748
-0.030679552 -0.032041926 -0.019122789 -0.033370312 -0.025661746 -0.021926867 -0.03912015 -0.023175858
00000000: 24f2 61bc b600 05bd 36d6 cebc c707 debc
00000010: d3e7 94bc 3423 d3bc d5e0 c6bc ef58 07bd
00000020: 17b7 f5bc e504 06bd a38c 00bd 1814 38bc
00000030: 9cae 8dbc a9c2 2cbd fc4d 0dbd 9757 e3bc
00000040: 9f72 e2bc 9002 12bd a35a 0bbd a5d9 b8bc
00000050: 3faa 0dbd 2f68 f0bc ced8 f9bc 70ad d6bc
00000060: af53 fbbc 653e 03bd 65a7 9cbc 4faf 08bd
00000070: 9538 d2bc f99f b3bc 733c 20bd 4cdb bdbc

embedding.5.1.running_mean f4 [32]
0.13316207 -0.24581683 -0.038227096 0.061891563 0.1090409 -0.27666202 0.13591272 -0.32473588
0.12756714 0.8802349 0.08669564 0.44284222 0.026215097 0.5877288 -0.36679116 -0.18595079
-0.4556111 -0.106828116 0.2358323 0.15071961 -0.10335899 -0.34575227 -0.20925885 -0.23173821
-0.033320688 -0.060735665 0.24798991 -0.35726243 0.43886378 0.040876802 0.90495247 -0.1992629
00000000: a35b 083e 68b7 7bbe 0494 1cbd 0282 7d3d
00000010: d650 df3d a5a6 8dbe b42c 0b3e c843 a6be
00000020: f6a0 023e 1357 613f 7c8d b13d 37bc e23e
00000030: 0bc1 d63c 6575 163f 0dcc bbbe e269 3ebe
00000040: dc45 e9be b3c8 dabd 067e 713e 3e56 1a3e
00000050: e1ad d3bd 7106 b1be f447 56be c84c 6dbe
00000060: 467b 08bd f6c5 78bd 11f1 7d3e 1aeb b6be
00000070: c1b2 e03e 6f6e 273d f7aa 673f 930b 4cbe

embedding.5.1.running_var f4 [32]
0.11947204 0.113956936 0.11439421 0.09926205 0.06263354 0.08504655 0.085837536 0.10341528
0.11267837 0.2085768 0.12489598 0.1399072 0.0969698 0.13398282 0.11249411 0.09822594
0.10395476 0.119674124 0.14659172 0.09607555 0.15896137 0.0612654 0.053998377 0.06234564
0.10718611 0.11028095 0.13720442 0.09443928 0.08615736 0.15000266 0.37701574 0.10231883
00000000: c2ad f43d 4162 e93d 8347 ea3d e749 cb3d
00000010: 0346 803d e32c ae3d 97cb af3d 64cb d33d
00000020: ebc3 e63d 2895 553e 77c9 ff3d d543 0f3e
00000030: 1a98 c63d cb32 093e 5063 e63d ae2a c93d
00000040: 3ce6 d43d b517 f53d 241c 163e 42c3 c43d
00000050: c5c6 223e 6ef1 7a3d 672d 5d3d 245e 7f3d
00000060: 6484 db3d fbda e13d 517f 0c3e 6269 c13d
00000070: 4573 b03d 4c9a 193e 3508 c13e 898c d13d
